models/pose_gru.pt (torch, 757546 bytes, 10 tensors)

gru.weight_ih_l0 f4 [384, 102]
00000000: b086 38bb 3cb9 bd3d 793e e23d daaf 64bd
00000010: 0ef5 813c 58b6 06bd 4627 e63d c7b1 9fbd
00000020: 1b72 903d c759 1b3d b965 aa3d d4b5 af3d
00000030: 1237 f03a 5f8c 15bc 22f9 903d 81d0 c9bc
00000040: ee35 5b3c d4e5 bf3d 72cd 1abd b6e0 fdbc
00000050: 9c32 86bd 1d22 443b 4576 023e 18b3 44bc
00000060: b1a0 9abd 22f2 bc3d 149f b93c 3461 ffbd
00000070: 5b9b b53d ad3b 043e 676a b23c 56aa bb3c
00000080: 9dfb 903d b3b7 4f3d 463a b9bd 1ee6 8e3c
00000090: f9b4 f43a 61b0 98bc 28e2 61bb 8508 f33d
000000a0: 1c2e 6abc 4e81 b23c 074e af3d 3ab8 903c
000000b0: e05d d33d f45f fdbc ee86 743d 7f15 f93c
000000c0: 7597 9abd 2216 ec3d 6efb e03d 4bdd 873c
000000d0: 993c c23a 8169 a73d 7caa b03d ec32 df3d
000000e0: d344 f13c 5e45 95bd 6ced 9dbd c440 d03d
000000f0: 5f1e db3b 780f 30bd e9d8 27bd e29d 96bd
00000100: f12d 6abd eca5 0e3e f388 e83d 0c9d cf3d
00000110: 61bd 9c3c fbfd 1a3d 10ef 04be 97e5 85bc
00000120: 9e0a 9fbd cd3a 12bd 98de 813d cdbf e2bd
00000130: 6941 48bc 85d6 f93d aba4 3abd aba4 18bb
00000140: 1839 873d bad1 a0bb aa7a b33d 290a 883c
00000150: fb6b 323d 6691 50bd 5876 0a3d f461 64bd
00000160: bc77 1f3d 215d 9e3a 63d6 843d 498e 5dbd
00000170: 3d2d 3c3d 22d2 c13d 9da7 3e3d 2721 7b3d
00000180: 57c3 aebd 1f25 fb3d 760d f03d fbf9 bdbd
00000190: 543e 67bd 951b b43d 7a1b 7abd 1c60 8e3d
000001a0: 0af6 9f3d d643 06be b43f 293d 2e72 7ebd
000001b0: 94ac 993b f338 483d 555a 57bc 506f 9ebc
000001c0: 8e4b d93d b822 65bc 96ef aabd 33c7 4ebd
000001d0: 53b9 c93d 6339 3cbd 0347 8e3b 0d11 b2bc
000001e0: 5e99 41bc a582 823d 7fe3 833d 961b 093d
000001f0: 8ece ab3d 7c3c 103d 28cf c3bd 2029 24bb
00000200: 7227 833d fc09 3ebd a765 f83d 04be 67bd
00000210: 6314 67bc dcf5 2abc b377 a03c b815 fabd
00000220: 89bb 1dbc defd a23d 94ae 08bc 8cdd c9bc
00000230: e8f3 f33c 7a4e 09bd 0758 75bc b643 54bd
00000240: 3ab9 91bd 0455 99bd 8774 92bd f6fc 36bb
00000250: c232 baba b0b1 d6bc 0596 a2bd 64f3 dbbd
00000260: d489 be3c 11b4 d2bb 6286 88bd 4e13 afbd
00000270: 06dd ef3b d7ac 77bd 1d0a 25bd a25d febc
00000280: a7fc 97b9 0f02 823d aebe fabd 424d 28bd
00000290: c683 193d 7600 533d a3d7 29bd 045a 28bd
000002a0: 700b 6abd c600 9d3d 2014 bbbc 20b4 1ebb
000002b0: fa42 1d3c ba20 0b3d 1cb2 4ebd 80c3 543d
000002c0: 2618 b53c c249 c7ba ae90 e03c 0c74 973c
000002d0: 5bef b2bd d46d fb3d b31b 233c aebd efbd
000002e0: 2085 ce3d 9320 a53c a8ed 983c fcfd 4f3d
000002f0: b200 733d b145 49bd 37b3 00bd 8937 83bd
00000300: 1850 163d 039f 963d 90eb 923c 68e5 77bb
00000310: ca1d e13d 1faa 0fbc 540b b7bd e47f aebd
00000320: d93d ccbb 3025 d5bd 6b14 dcbd 5109 7d3d
00000330: de57 b73d 8a1e 81bc c760 8e3b 3dff 993d
00000340: 62a8 683d 8579 4cbd 3791 3c3d 3cab b2bb
00000350: 57ba 753c 99e8 9dba 7148 8b3c 693d 63bd
00000360: 547c 2a3d ba0f c53c 2cdb ce3d 8b09 6a3d
00000370: c7a7 c839 c665 99bc 59e3 f33c 9099 9c3d
00000380: 526b 7a3d dcf4 b0bc 37a8 043e 3c9d 43bd
00000390: 5b42 b83d f81f fe3b 0e99 143d 04d3 9dbc
000003a0: bd32 ce3d 0468 863d d612 c63d d01c 9d3d
000003b0: 7d0a ea3b 83bb debb ec96 663d 29ed b43d
000003c0: ea0e 983d 1a35 a5bd 4869 c63b 7349 6ebb
000003d0: 45f1 073c 6267 863d 633b e4bd e1d8 c53d
000003e0: e47c 3fbd e436 993c 8358 ad3c 8d7f 78bd
000003f0: 1708 13bd bad5 7e3d 732f 483d c722 423d
-0.0028156452 0.09263846 0.11047072 -0.055831768 0.015863921 -0.03288874 0.112379596 -0.0779758
0.07053014 0.037927415 0.08320183 0.08579603 0.0018326959 -0.009127705 0.07078768 -0.024635555
0.013379557 0.09370008 -0.037793584 -0.03099094 -0.06552622 0.002992756 0.12740429 -0.01200559
-0.07550181 0.09225871 0.022658862 -0.12469712 0.08867522 0.1291339 0.021779252 0.022908371
0.070792414 0.0507123 -0.09044318 0.017443713 0.0018669657 -0.018638792 -0.0034467075 0.11866859
-0.01429322 0.021790173 0.085598044 0.017665971 0.103206396 -0.030929543 0.05969899 0.030405758
-0.075484194 0.11527659 0.109854564 0.016585013 0.0014819085 0.0817442 0.08626267 0.108983845
0.029451763 -0.07288621 -0.077113 0.10168603 0.00668697 -0.042983502 -0.040978346 -0.073543325
-0.05717272 0.13930482 0.11354246 0.10137376 0.019133272 0.03783987 -0.1298182 -0.016344829
-0.07765697 -0.035700608 0.063412845 -0.11071739 -0.012222626 0.121991195 -0.045567196 -0.002329151
0.06602687 -0.004907814 0.08763631 0.016606407 0.04356001 -0.050919913 0.033804268 -0.055757478
0.038932547 0.0012082198 0.064862035 -0.05409077 0.04594158 0.09463908 0.046546567 0.061310913
-0.08533352 0.1226294 0.117213175 -0.092761956 -0.056455925 0.08794323 -0.06106136 0.06951925
0.078106 -0.13111815 0.041320518 -0.06212061 0.0046897624 0.048882436 -0.013144095 -0.019340187
0.10610114 -0.013985328 -0.08346479 -0.05048294 0.09849801 -0.045953166 0.0043419614 -0.021736646
-0.011816351 0.06372575 0.06439876 0.033473574 0.083890066 0.035213932 -0.09560996 -0.0025048926
0.06404008 -0.04639624 0.12128764 -0.056577697 -0.014103982 -0.010434594 0.019588327 -0.12211174
-0.009627231 0.079585776 -0.008342404 -0.024641775 0.02977939 -0.033522107 -0.014974601 -0.051822387
-0.07115407 -0.074869186 -0.07151132 -0.0027921773 -0.0014205801 -0.026207775 -0.0793877 -0.107397825
0.023259081 -0.006430157 -0.066662565 -0.08548604 0.007320049 -0.060467567 -0.040292848 -0.031050507
-0.00028989205 0.06348049 -0.122434005 -0.041089304 0.037479185 0.05151411 -0.041465413 -0.04110147
-0.057139814 0.07666163 -0.022836745 -0.002421625 0.009598488 0.033966757 -0.050462827 0.051944256
0.022106241 -0.0015204477 0.027412739 0.018487953 -0.0873706 0.122768074 0.0099553345 -0.117061004
0.10083985 0.020157134 0.01866801 0.050779328 0.059326835 -0.04913873 -0.031420913 -0.06407077
0.036697477 0.07354548 0.01793459 -0.0037825946 0.1099201 -0.008768587 -0.089377075 -0.08520487
-0.0062329588 -0.104074836 -0.10746082 0.061776463 0.08952306 -0.015761632 0.004345033 0.07519386
0.056801207 -0.049920578 0.046036925 -0.0054525416 0.01499804 -0.0012047469 0.017002316 -0.055478487
0.041622475 0.02405535 0.101003975 0.057138007 0.00038271977 -0.018725287 0.029771494 0.07646477
0.061137505 -0.021601133 0.12954794 -0.047757372 0.08997031 0.007755276 0.036278777 -0.01926566
0.10068271 0.06562808 0.096715614 0.07671511 0.0071423636 -0.0067972555 0.056296274 0.08834297
0.0742472 -0.08066769 0.006055031 -0.0036359697 0.008297269 0.065626875 -0.111441396 0.09660507
-0.046749964 0.018702932 0.02116037 -0.060668517 -0.035896387 0.062215544 0.048873376 0.047396448

gru.weight_hh_l0 f4 [384, 128]
00000000: b4f6 3abb ba78 5f3d 44a9 623d 74ac 9f3c
00000010: 2366 003b 9102 cebd 32a1 a43c 7034 a93d
00000020: 1e56 dfbd 8c5e 8b3d 6165 993c 743e 0c3e
00000030: 03a7 85bd 3bbe 57bc 592e 0e3d 35bc f5bc
00000040: 27d0 8a3c 3bf8 79bc 0d31 243d 2687 1e3c
00000050: 4e95 efbd 180d b03d 64fe fb3d c2ce 363d
00000060: 46b1 b5bd cde2 46bd 4fd3 f4bd 2d38 863d
00000070: 1bc1 013e 17d5 203d 64f8 06bd eca6 1bbd
00000080: 5cf3 83bd 237a 133e 97ef f83c 40c1 703b
00000090: 543f c13c 08b3 fdbc 7727 cc3d d872 b2bd
000000a0: 7d7a 81bd 78c6 19bd 5e00 d2bb ab7d 06bd
000000b0: 7c0e 0ebd 11e2 a5bd b600 10be 4b47 7cbc
000000c0: 4bcb d23d ed16 23bc 40a3 3c3a a6f3 a6bd
000000d0: bbe0 003b bfc8 50bd 88b1 a3bd d3a6 7a3d
000000e0: 5765 92b9 ca32 46bb 83d2 163c e47e 2abe
000000f0: 4493 823a 1c9e 3d3e 8a50 903d bbfd 283e
00000100: b3da 81bd f2d6 883d 39c4 3c3d 81c4 793d
00000110: df71 533d 00eb 003d 9391 383d 1e6c 0b3e
00000120: 9910 b03d 0caa 01bd 023b 723d 2bcc 693d
00000130: a9a6 cb3d a0c5 d13c a3b7 ef3c f29d d7bc
00000140: 06e6 adbd e139 563d d10a f7bd 2f67 303c
00000150: 51e8 d6bd 829d e43d c41d a4bd 54bb f6bd
00000160: b7f9 dfbd b9bf dabd 9955 8d3d 6b63 3c3d
00000170: 45b1 c33d 4de0 8a3d b382 063d 3ab2 c23d
00000180: f4d0 2ebc 0f9d 3bbc 4fdf 273d 9322 5e3c
00000190: cebc 163d 8e3a 903d ca02 09bd f724 dc3d
000001a0: 7d78 aebd 8fcb d53c 5620 e6bd 4568 0fbe
000001b0: 4052 563d 63fd c83d 16f9 a8bd 320b a3bc
000001c0: efde b03d a5a4 f9bd 9101 213d b2a7 60bd
000001d0: 6ead 393d c366 8a3c d89d aabd 2093 dfbc
000001e0: a279 9c3c 0259 dfbd 0b2f dc3d 7302 663d
000001f0: cf66 72bc 5609 713d 18cc 8dbd b884 653c
00000200: 058c 883d f5f9 61bd 412f 10bd c7e9 9d3c
00000210: 1018 013d ebde 57bd fc74 993d acd8 d43c
00000220: a6c9 3dbc 8b5c 4e3d 6dc2 d5bd 3364 d9bd
00000230: c6b6 c03c e6a7 0f3d c9fc 82bd 6885 41bd
00000240: 7e72 763d d017 f23c 6b0f de3d f221 00bd
00000250: 2b73 773d 79cb 8ebd c891 4a3d d42b 653d
00000260: 9c05 6cbd e248 423d 6faa 183b 30f0 25bc
00000270: 001b a43d 4ea8 ba3d 466f 723d 0615 a4bc
00000280: e30e e4bd 1ebf 27bd fb77 dbbd 4bb1 ce3a
00000290: 5174 c03d e04b 853d 6164 bbbc 92b7 acbd
000002a0: 7eb4 a23d 2dfa fb3c 0142 80bd 566c a6bc
000002b0: ebbd 143d 2365 223e bfdd 0bbe 9715 86b9
000002c0: 5550 8abd a6da 203d b3c6 863d d8db 1d3d
000002d0: b4aa 4c3c 7c63 59bd 05f5 73bb 1fc7 d7bc
000002e0: 304f bc3c 44c1 00be 9cfc 8c3d 8fa8 e2bd
000002f0: 028e bdbd 50ac 84bc 503a fbbb a947 65bd
00000300: 5d2c 873d 8712 a3bc a6ce be3d bd3d 0fbd
00000310: 853b 23bd 93ac 92bc 9306 a93d 9837 58bd
00000320: 12f0 c53d 66a4 5538 8513 29bd eacf 0c3e
00000330: 72fb ebbc d4b4 a9bd 38bb 643d 1e42 a5bd
00000340: 3024 6f3d 9bf4 81bd e2d3 223c 925a d23d
00000350: 10d3 573d ea4e 9f3d a4bd b43c ee9e c93d
00000360: cfa3 01be 64f0 803c 337d 9cbd a638 e53c
00000370: eba2 5d3b 8ef4 92bd 057b 4d39 8dce d83c
00000380: 4ef2 afbd 522e 903d 79c7 c8bc 3148 293d
00000390: 8714 a93d e63a 033d 6df0 acbd 9098 e1bd
000003a0: 5195 e7bd 976d 60bc c2bb 91bc 8656 05bd
000003b0: 2ff1 36bd 38f2 acbd 8ae8 68bd c7b0 083d
000003c0: 2141 24bd e060 eb3c eedf dfbc 5bd4 7fbd
000003d0: bcff 6e3c 24cd 3d3d 8e90 76bc 2906 a3bd
000003e0: 27ad 053d 2820 773d 850e 07bd d732 463d
000003f0: 6e9c e93d cdfe a8bd 8115 a43d 77c8 c53d
-0.0028528394 0.054558493 0.055337206 0.019491412 0.0019592128 -0.10059083 0.020096395 0.08261955
-0.109050974 0.06805143 0.018725099 0.13695699 -0.065259956 -0.013167913 0.03471217 -0.02999697
0.016944958 -0.015256937 0.04008584 0.009675777 -0.116983995 0.085962474 0.123043805 0.044630773
-0.08871703 -0.048556138 -0.119543664 0.065536834 0.1267132 0.03926572 -0.032951728 -0.038000986
-0.064429015 0.1440206 0.030387683 0.003673628 0.023589768 -0.030969158 0.09968465 -0.08713311
-0.06322191 -0.03754279 -0.006408735 -0.03283469 -0.034681782 -0.08099759 -0.14062771 -0.015397857
0.10292681 -0.009954196 0.0007195957 -0.08151941 0.00196652 -0.050972696 -0.07992846 0.061194252
-0.00027922794 -0.0030242675 0.009205463 -0.16649967 0.0009962101 0.18517345 0.070466116 0.1650304
-0.06340542 0.066816226 0.04608557 0.060978416 0.051622268 0.031474113 0.045060705 0.13615462
0.08596916 -0.03165631 0.059138305 0.057079475 0.09943897 0.02560693 0.02926237 -0.026320431
-0.08491139 0.05230129 -0.1206261 0.010766788 -0.104935296 0.11162855 -0.0801349 -0.12047449
-0.10936301 -0.106810994 0.06901092 0.04599325 0.09555296 0.06781063 0.03283949 0.0950665
-0.0106699355 -0.01145102 0.040984448 0.013558048 0.036801152 0.070424184 -0.033449925 0.10749238
-0.08519075 0.02609804 -0.11236636 -0.1400462 0.052324533 0.09813955 -0.08250634 -0.0199028
0.08636271 -0.121896066 0.039308134 -0.054847427 0.04533141 0.016894704 -0.083308876 -0.027291834
0.019100968 -0.10905649 0.1075116 0.05615468 -0.014795019 0.058846794 -0.069236934 0.014008693
0.066673316 -0.05517002 -0.035201315 0.019276513 0.03151709 -0.052702826 0.07493016 0.025982223
-0.011583721 0.050381225 -0.104374744 -0.106148146 0.023524653 0.03507223 -0.06395871 -0.047246367
0.060167782 0.02955237 0.108427845 -0.031282373 0.060412567 -0.06972403 0.049455434 0.05595
-0.057622537 0.047432788 0.0023294946 -0.010128066 0.08012962 0.09114133 0.05918815 -0.020029556
-0.11135652 -0.040953748 -0.10716244 0.001576939 0.093971856 0.06508613 -0.022875013 -0.08433451
0.079445824 0.030758942 -0.06262589 -0.02031533 0.036313932 0.15858893 -0.13658808 -0.00025574557
-0.06753603 0.03927102 0.065808676 0.038539737 0.012491871 -0.05307339 -0.00372249 -0.026340066
0.022986978 -0.12573725 0.06884119 -0.11067306 -0.092556015 -0.016195446 -0.0076668635 -0.055976544
0.066002585 -0.019906295 0.09316759 -0.034970988 -0.039851684 -0.017904555 0.08253207 -0.052787393
0.096649304 5.0936265e-05 -0.04127838 0.13751188 -0.028806422 -0.08286443 0.05584261 -0.080692515
0.05838412 -0.06345483 0.009938212 0.10271181 0.05269152 0.077787235 0.022063084 0.098447666
-0.12660144 0.015739627 -0.07641067 0.027981114 0.003381903 -0.07175551 0.00019596152 0.026465679
-0.08591138 0.07040085 -0.024509178 0.041328613 0.082558684 0.03203859 -0.08444295 -0.11015427
-0.11307777 -0.013698003 -0.017789725 -0.03255322 -0.044663604 -0.08444637 -0.05686239 0.033371713
-0.040101174 0.028732717 -0.027328458 -0.062458377 0.014587339 0.046338215 -0.015049113 -0.07960159
0.032635834 0.0603334 -0.03297283 0.04838833 0.1140679 -0.082517244 0.08011914 0.09657376

gru.bias_ih_l0 f4 [384]
00000000: 526d c8bc a27d c83d 212b b9bc 1891 c1ba
00000010: d3a9 7abd 1491 e53b 8f11 8a3c 9ad2 0ebd
00000020: 7fc4 8f3d c46e 443d c02e 773a 87a4 55bb
00000030: 94e5 72bb cd7b 68bd 8540 ca3d 87ec 033b
00000040: 9b89 dcbc 6131 813c 4c57 8c3d f04d b63d
00000050: 3e24 793d 382a 003e d691 303b c089 bc3d
00000060: ed54 623d 4c0f 20bd 6282 a83d c29b af3c
00000070: c9be af3a 6361 b93d 6a42 8e3d 2878 8fbd
00000080: d8a9 82bd 5a8f f53d d4d8 e73d 9c04 e73d
00000090: eb92 19bd eaf8 7ebc 5ce0 843d fb0f 4f3d
000000a0: d3d5 2dbd c7a2 37bc 0f6d d0ba ee7e 863d
000000b0: 1cc0 1b3d b4e8 763d 6928 413d 30b2 983d
000000c0: f893 82bd 4bf8 393d 6765 ad3d 3c5f a5bc
000000d0: 9717 a53d 3d1b 92bd 4951 b13d e0f6 9d3d
000000e0: 30d9 9b3c 6f75 81bd 7b8f 143e 3ead f2bc
000000f0: 88b2 1fbd 1a1f acbd 97be 2d3c 390e 4ebd
00000100: 1b60 c33d 2ca8 413d 8b4f e1bc 0da2 773d
00000110: f1bc 003e c6ca 103d e294 f3bc 0d49 953c
00000120: 0c29 ef3d 74ce 863d b37b 0b3e df95 d43d
00000130: 3579 d23d 652b eb3d 131e 503d 9fca a43d
00000140: e98c a2bc d5fc db3c dcd7 b33d 63c7 7ebd
00000150: 9453 103c 8056 05bd 9c26 503c 783d 08bd
00000160: e3b1 a6bd a8bd aabd e546 48bb 19e6 163c
00000170: 1ac6 7abd 3451 0d3d ac7a 7d3d 3683 983d
00000180: 683f c03c cd55 293a e166 e33d 42b5 be3d
00000190: f81f e0bc f2d9 1bbd 7f51 243d 42f7 d23c
000001a0: 82dc 0cbd 3ecb 6abd b6c8 043c 1a5d 54bd
000001b0: 6761 4dbc 8468 cc3b f40b fdbc 0b32 e8bc
000001c0: 3970 d3bc a7a1 b43d 5eda 6abd f869 87bd
000001d0: b0dc c63d 830b a3bd 6ff9 1e3d a33d bd3d
000001e0: 2bc3 d1bc 616e c2bd 9704 0bbd de8c db3d
000001f0: a740 ef3d f972 793d 9cef 5e3d 4f5d f33d
00000200: 00cb ebbd f55d 533d 77db 50bc aa80 4bbd
00000210: 589c c43d 620b 783c e72c 0dbc c5d7 9e3c
00000220: 2007 683d 1259 f5bd c22c 143c 3dee 88bd
00000230: e032 0dbd e9cd 7dbd 44d9 113c e345 e5bd
00000240: 3706 a13c 7dcc 6f3d bbe9 62bd bbf3 cfbd
00000250: 3aae 2fbd 02c3 7dbd 90d4 c7bc fb46 1b3d
00000260: 7760 c2bd 5ef4 1d3b 6fae 36bd d82b c1bd
00000270: c150 053c ce8f c43c adff c8bc e460 9fbd
00000280: 98f8 8ebd f67e 42bd d2b5 86ba a10d 83bd
00000290: 8abf 6bbc 0d98 95bd 5936 9ebd e53b e0bd
000002a0: 6118 a8bc 1361 513d e6c9 793d f136 373c
000002b0: 7bb2 203d 6556 64bd a775 68bd 6dff 2abc
000002c0: b09e de3d bac2 2b3d c52f 07bd d4c2 7c3d
000002d0: 02a8 3f3d 0e9f a3bd f96c f4bd b5bc 963d
000002e0: 5aaa ae3c 1dfe 37ba 0a75 b8bc a059 99bb
000002f0: 50dd 7fbd 0abf 54bd b864 393d 55d9 0e3d
00000300: 2685 d53b 5cd4 83bd 9e51 803c 674e e33c
00000310: f0d1 6f3d c83c a83d 53e2 4f3d ebbd 813d
00000320: 3123 883d 8c6b 94bd 751c 0d3d a426 383d
00000330: 63ba 823d acc7 9c3d 8aa0 8c3d 3e8b 2dbd
00000340: 1ed3 c43b 539e 7bbd 6ccf 14bb 22dc 87bc
00000350: 1917 7b3c 5b94 af3d 2e98 353d 65de 583b
00000360: ad07 4fbd e8ac 103d a527 a0bd b6b9 a63d
00000370: 2d7b b8bd 2b28 97bd fabb 25bd 6247 893d
00000380: 12f5 213b cc0e 673d df85 3bbd 6616 2a3d
00000390: 70e7 43bd 4c1a 70bc 1c42 8ebb e311 4b3d
000003a0: 2065 b7bd b30c 46bc 7f25 0dbc 5a09 9a3d
000003b0: 1694 8e3d 6b03 733b a8c4 cf3c 09be 073d
000003c0: f7ae 7abd 8efb cdbd 1f4a 543d 0383 5d3d
000003d0: e4a3 d23d 4bb8 323d 8f18 9fbd 31d2 0bbc
000003e0: cbb8 ba3c 719b 9b3d 3569 75bc 7a64 cabc
000003f0: bb51 88bd c34e 01be b306 b63d 4c19 a3bd
-0.02446619 0.097895876 -0.022603573 -0.0014767973 -0.061197113 0.00700582 0.016854076 -0.034868814
0.070199005 0.047957197 0.00094292685 -0.0032599287 -0.0037063109 -0.05675869 0.098755874 0.0020129995
-0.026921084 0.015770616 0.06852588 0.08901584 0.06082558 0.12516105 0.0026942394 0.09205961
0.055256773 -0.03907709 0.082279935 0.021436576 0.0013408299 0.09051778 0.06946261 -0.0700534
-0.063800514 0.11990233 0.113206536 0.11280176 -0.037493628 -0.015562275 0.06488106 0.05055235
-0.042440247 -0.011208243 -0.0015901643 0.06567179 0.038025007 0.060280517 0.04715768 0.074558616
-0.06375879 0.045402806 0.084666066 -0.020187013 0.0806114 -0.071341015 0.08658082 0.07713103
0.019024462 -0.06321227 0.14507858 -0.029623624 -0.03898862 -0.0840437 0.010604522 -0.050306533
0.09539815 0.04727952 -0.02750375 0.060457278 0.12572075 0.03534963 -0.029734079 0.01822331
0.11677751 0.065823466 0.13621406 0.10380148 0.10277025 0.11482886 0.05080993 0.080464594
-0.019842582 0.026853958 0.08781406 -0.06220187 0.008808989 -0.032553196 0.012704518 -0.033261746
-0.08139398 -0.08336955 -0.0030559835 0.009210133 -0.06122408 0.03450127 0.061884567 0.074469015
0.023467734 0.00064596237 0.11103607 0.09311916 -0.027358994 -0.038049646 0.040116783 0.025752667
-0.03438998 -0.057322733 0.008104494 -0.0518466 -0.01253543 0.006238045 -0.030889489 -0.028344175
-0.025810348 0.08819895 -0.057337157 -0.06612009 0.097100616 -0.0796118 0.038812097 0.09240272
-0.025605759 -0.09493709 -0.033939924 0.10720228 0.11682253 0.060900662 0.054427728 0.118830316
-0.115133286 0.051603276 -0.012747637 -0.04968325 0.09600133 0.015139433 -0.008616663 0.019389996
0.05664742 -0.119798794 0.009043874 -0.06686065 -0.034472346 -0.06196395 0.008901898 -0.111949705
0.019656284 0.058544625 -0.055398684 -0.1015391 -0.042890765 -0.061953552 -0.02439335 0.03790949
-0.094910555 0.0024101953 -0.044599947 -0.09432191 0.008136929 0.023994353 -0.024535978 -0.07782152
-0.06981009 -0.04748436 -0.0010277575 -0.06399084 -0.014388928 -0.07304392 -0.0772521 -0.10948924
-0.020519437 0.051117968 0.06098356 0.011182533 0.039232712 -0.055746455 -0.056752827 -0.010436875
0.10870111 0.041933753 -0.03300454 0.06170924 0.046791084 -0.07989322 -0.119348474 0.07360212
0.021321464 -0.0007018762 -0.022516746 -0.0046798736 -0.06246692 -0.05194 0.04526207 0.034875233
0.0065161167 -0.06436989 0.015663918 0.027747346 0.05854982 0.08214718 0.05075295 0.06335052
0.06647337 -0.072470754 0.034450967 0.044958726 0.06383207 0.07655272 0.06866558 -0.04236912
0.0060066124 -0.061430287 -0.002270664 -0.01658446 0.015325331 0.085732184 0.044334583 0.0033091542
-0.05054443 0.035321146 -0.078200616 0.0814089 -0.09007869 -0.07380708 -0.04046247 0.06703068
0.0024712724 0.056410596 -0.045781966 0.041525267 -0.047828138 -0.014654707 -0.004341377 0.049577605
-0.08954835 -0.012087989 -0.008614897 0.07521315 0.06961839 0.0037080895 0.025362328 0.033140216
-0.061202016 -0.10057746 0.0518285 0.05408002 0.10285166 0.043632787 -0.07768356 -0.008534
0.022793194 0.075980075 -0.014978697 -0.024706114 -0.06656214 -0.12627701 0.088879965 -0.07963809

gru.bias_hh_l0 f4 [384]
00000000: f4dc 013d b9f2 ccbc 1619 403d a298 493d
00000010: 4f49 3abd 82f1 6c3c 0bcb c43d c8f6 fd3d
00000020: 71de 7dbd 1efd 56bc 647c 183d fc7a 5a3d
00000030: d31c 233d 1e10 593d 7c74 d43c 0c3e 78bc
00000040: e766 31bc a17a 23bd e03f c0bc 9a48 443d
00000050: cf87 f63c 02fc a63d 9ceb db3d b61a 9bbb
00000060: b040 0cbd cdd5 a93d aa01 93bd f321 a43d
00000070: 3611 a13d ce8b 353d 6b64 a33c 6ea4 633c
00000080: b8bb 59bd 76c3 d53d ff15 86bc 9267 003d
00000090: 577d bcbb d8c6 b13d 4e5b b8bc 35ce 47bd
000000a0: 181f 4fbc 2f3e ec3c b6c5 9e3c 54a3 80bd
000000b0: 592a 0abd 5d3a d6bc a796 5bbd 3e22 ddbc
000000c0: 117c ad3d ce23 65bd 49a3 033d a69b 9bbc
000000d0: 33fc d63d 2973 ca3c 0e6c e93d c2f6 e93d
000000e0: fd4c d8bc 253f f63c 34ed 0d3c 230c c63d
000000f0: 4290 b6bd 15ea 93bd b8e4 b6bc 980e 843d
00000100: df93 f1bc 40d3 c13d 2243 ae3d ce18 223d
00000110: 6ba1 9fbc fe0c b33d 58c8 f93c f4e4 a33c
00000120: eb38 02bd ac26 dbbc 3686 023e 1fdd 903c
00000130: 9aae 813c d9fe af3d bb49 51bd dd6e ccbc
00000140: 0392 2f3c 4da7 003c 65df 38bd 276a 29bd
00000150: 6f28 ce3d 62dd 5b3c 43e3 a3bc 6bc0 a83d
00000160: b199 3f3d 82b0 413c d12a 083e 4dc1 8b3d
00000170: 6fa4 21bc 44a2 c73d fbfe 113c bb0b cd3b
00000180: 3f7a 8f3d c5b8 1b3d 65a1 56bd a471 9c3d
00000190: e4e8 563d fcfc 993d ad30 af3d fa30 b43d
000001a0: 7560 ecbb 0d98 6fbd 6b29 48bd 4567 62bc
000001b0: 8cd2 9b3c 882d c3bc 6ea8 74bc 6470 e9bc
000001c0: 3d16 d2bc 1c5c e53d 67a3 d83c 401c 923c
000001d0: 9fdd 183c 709a 46bb cf79 e73d a8d8 df3d
000001e0: 855e 69bd 23ea 4bbd f1e9 81bd 9a6b b73d
000001f0: 6683 00bd 54d6 a0bb 1fe3 073c e31c 943d
00000200: 5456 f83c 8cd5 743d de11 c1bd 3ffd 773d
00000210: 6c57 49bc 397a 5cbd f33f ccbc 7c49 3b3d
00000220: c980 2d3c 0597 c1bd a484 32bd 068b d33d
00000230: 743f 8b3c 759a 023d ec91 5c3d 9ea5 303d
00000240: 9854 94bd b498 53b9 6a70 67bc 52a5 9abc
00000250: ce07 1e3d 0a77 983d 8580 c83d 5b4d 1f3d
00000260: 65c9 8bbc 8c1a 0dbd 88d2 d9bc 1717 e63c
00000270: 96ae 173d d1c0 063d 04d5 b53c 346a 01bd
00000280: b0f3 ebbd 652c 39bc 0678 bdbd 21ce 2abc
00000290: 119c b0bc 7522 0abd 5396 6a3d 6e9e 30bd
000002a0: 6eb4 8d3d 16f9 57bd 84ae 95bd 7fd8 3abd
000002b0: 3285 ceb8 2818 25bd f143 9fbd 6af1 603d
000002c0: c78e f03c 142b 71bd bb17 77bd 8631 5dbd
000002d0: cb32 7cbc 6795 80bb a8da 81bd 9905 babd
000002e0: 7b7f 17bd 4b51 8a3d 4c45 9dbd 6bf0 b53d
000002f0: 68d0 133d 5f43 4f3d fd49 b63d 0f71 0b3d
00000300: 15a0 ec3c 409b 4dbd 67f5 4ebc f707 6bbd
00000310: 3599 7aba 9ac6 6abd a5b7 013d dc43 b33d
00000320: e3ee 633c a99a eb38 cec0 9bbc 2f40 ba3c
00000330: 0939 953d 57a9 853c c7af 3e3c 8d06 9b3c
00000340: 39b4 023d 3876 bfbd 5f0a 953a 097e 80bc
00000350: 30fe 83bd 900e 733d a626 79bb d90c 9bbd
00000360: f158 d3bd 154b b73d 4eef d0bd 9795 47bd
00000370: 60c6 4a3d 37f2 e1bd 875d a2bd 608c a1bd
00000380: 7419 e1bb 8c10 563c 1d7e 85bd 9497 643d
00000390: 93d9 1d3d 8faf d63c fd61 a3bd 401d 04bc
000003a0: b8b0 493d 916c 1ebc eb04 f9bd fa16 1cbd
000003b0: 3a6a a43d 7c16 90bd 2f7c 91bd ddef 84bd
000003c0: b4f3 9b3c 4bbb 263b 4386 123d 0e61 afba
000003d0: 8a8f 70bd aa27 813d 37c9 cbbc 0d5e 9dbd
000003e0: 8046 5d3c 9bad 853d bde7 ba3c 0788 863b
000003f0: 9f87 8ebd 77bb e6bd ecbe 353d c757 c7bc
0.031704858 -0.025018083 0.046898924 0.049217828 -0.04548007 0.014461877 0.0960904 0.124005854
-0.061979715 -0.013121871 0.037228003 0.053339943 0.03982241 0.052993886 0.02593445 -0.015151512
-0.0108277565 -0.03991187 -0.023467958 0.0479208 0.030094055 0.081535354 0.10738298 -0.004733409
-0.03424138 0.082927324 -0.07178052 0.08014288 0.07864611 0.04432278 0.019945344 0.013894184
-0.05315754 0.10437672 -0.01636791 0.031348772 -0.0057522464 0.086805046 -0.022504475 -0.04878064
-0.012641691 0.028838245 0.019381385 -0.06281152 -0.033731792 -0.026150877 -0.05361047 -0.026993867
0.084709294 -0.05594235 0.032138143 -0.018995117 0.10497322 0.024713116 0.11397563 0.114240184
-0.026403898 0.030059407 0.008662511 0.09670284 -0.08914234 -0.07222382 -0.022325858 0.06448096
-0.029489456 0.09464121 0.08508898 0.039574437 -0.01948615 0.087427124 0.03049104 0.020006634
-0.031792562 -0.026751839 0.1274651 0.017683564 0.015830327 0.0859353 -0.051095705 -0.024955207
0.010715964 0.007852388 -0.04513492 -0.041361 0.10066306 0.013419481 -0.020005828 0.08239826
0.04677743 0.011821868 0.13297583 0.068239786 -0.009865864 0.097477466 0.00891089 0.006257502
0.070057385 0.038018007 -0.05240001 0.07638863 0.052468196 0.07518956 0.08554206 0.08798404
-0.007213647 -0.058494616 -0.048867624 -0.013818567 0.019021295 -0.023825422 -0.014932735 -0.028495975
-0.02564537 0.11199209 0.026445104 0.017835736 0.009330182 -0.0030304454 0.1130253 0.10929996
-0.056974906 -0.049783837 -0.06343449 0.0895607 -0.03137531 -0.0049083624 0.008293896 0.07232072
0.030314602 0.059773967 -0.09427236 0.06054425 -0.012288909 -0.053827498 -0.024932837 0.045724377
0.010589787 -0.09452633 -0.043583527 0.10329251 0.01699803 0.031885583 0.0538501 0.043126695
-0.072426975 -0.00020179414 -0.014125923 -0.018877659 0.038581662 0.0744458 0.09790138 0.03889213
-0.017063806 -0.034449145 -0.026589647 0.028087182 0.037031732 0.032898728 0.0221963 -0.031595424
-0.11521089 -0.011302088 -0.09251408 -0.0104251215 -0.021558793 -0.033724267 0.057272267 -0.04311984
0.0691918 -0.05272778 -0.07308677 -0.045616623 -9.847655e-05 -0.04030624 -0.07776631 0.05491773
0.029364957 -0.058878973 -0.060325366 -0.054002307 -0.015392969 -0.00392406 -0.063405335 -0.09083099
-0.03698681 0.06753787 -0.07679233 0.08883747 0.036087424 0.05060136 0.08900831 0.034043368
0.028884927 -0.050196886 -0.012631751 -0.057380643 -0.0009559573 -0.057318307 0.031669278 0.087531775
0.0139119355 0.00011234481 -0.019012835 0.022735683 0.07286269 0.0163161 0.011638588 0.018924022
0.031910155 -0.0934872 0.0011370889 -0.015685098 -0.06444967 0.05934006 -0.003801742 -0.0757081
-0.103196986 0.08949868 -0.10201894 -0.048726644 0.04950559 -0.11032527 -0.07927995 -0.078881025
-0.0068694893 0.0130654685 -0.06518195 0.05580862 0.038537573 0.02620676 -0.07977674 -0.008063614
0.049240798 -0.009669439 -0.12159141 -0.03810785 0.080280736 -0.070355386 -0.07103764 -0.06491063
0.019037105 0.0025441225 0.035772573 -0.0013380365 -0.05873064 0.063063934 -0.02487622 -0.076839544
0.013505578 0.06527253 0.02281558 0.004105571 -0.069594614 -0.11266225 0.04437153 -0.024333848

gru.weight_ih_l1 f4 [384, 128]
00000000: cb0c a73d a18e 003d 6718 6ebd c301 893d
00000010: 92c8 58bd e1f0 09bc 4c4d 383d 266e ae3d
00000020: 97d8 e8bc 29da 2ebd 4d14 123c 3ade 093d
00000030: 494e 89bc 2ac7 90bc 0d6b bcbd 9938 86bd
00000040: 3cbc 233d c0a3 cdbd 03b9 1d3c 87a6 2d3d
00000050: f410 a73d 3cbd 233d a378 dcbd 773d ee3b
00000060: 31d0 333d 0d6d c9bd be52 813d e1df 85bd
00000070: b752 d83d bf74 573d c06d a7bc d380 d73a
00000080: b139 b9bc 3b3a 82bd c23e 13bc 9ffc d13b
00000090: eb11 903c 33bc 943d 23d4 a8bd 8432 ed3d
000000a0: c5b7 ccbc 7c88 b13d 36fc 88bd bfee 5c3c
000000b0: d856 523d bbb5 8a3c 06ef 673d f706 9d3c
000000c0: 2f98 d4bd 88e5 8b3c f71b 063c f62f abbb
000000d0: 5031 94bd 678f 36bd 4536 193e 056b b5bb
000000e0: 0b7f 8abd 1817 853d e927 1f3d 3608 a3bd
000000f0: 46cc 8b3c 154e 813c 27ab 603d d585 3c3d
00000100: c92d d5bc 307b a73b b5ab 98bd 46bd c43c
00000110: e73e 033e 1c9c 273d 0dc0 0bbd fb4a 9ebd
00000120: d2c6 193d 4bed 393d 817f 8b3c e93a afbd
00000130: 907f e1bb 4440 3bbd 1c13 013e 5b0b 8ebd
00000140: 7edd 1bbd 78ee 043d 5aeb 1b3c 8be8 98bd
00000150: c5a5 37bd 9655 2e3d 72a1 2c3d 6799 1f3d
00000160: 3ac2 a3bd 92b0 cf3d 01f5 86bc f509 96bc
00000170: 8430 463d ab02 bb3c f1bd 4cbd 4f16 be3c
00000180: ed0c dcbd 5bcf 07bd e063 48bd f0fb b73b
00000190: a168 19bd e731 b5bd bda3 363d 2758 b5bd
000001a0: 94a4 1cbc c065 903d c4a2 d1bd 95e2 773c
000001b0: 1748 b6bd 1042 54bd 6c60 bfbd dea1 10bc
000001c0: cad0 45bd adf3 ea3d 24b3 b33d f5a4 583d
000001d0: 6f3a 8fbc 8118 5f3d 7e40 193d 4bc9 033d
000001e0: 4c3f c73d a935 873d 5f8c d13c 4e62 0cbe
000001f0: 35e7 9bbd a6da 903d 42d1 c0bb 6dfb 323d
00000200: 27a8 0c3d c6d1 03bc b931 db3c 4cf2 fa3c
00000210: 8a9d c6ba 0a1a 57bd ff5e 203e 63b5 0bbe
00000220: e0de 01bd 391a 2ebd fcff ab3d 77ba 75bc
00000230: 36f9 953d 06ed 943d c453 2b3d 1e5b 82bd
00000240: f443 aebc ee3b 71bc cebf 763c f5e9 023d
00000250: 8c2f 66bd 5bf0 6bbd 545e c1bd 82a4 cdbc
00000260: 6f67 513c be18 c0bd f143 e3bc 43b2 9bbd
00000270: a3de d9bd b952 293d 8a0e be3c 2dbb 943d
00000280: bc21 903d fb34 793d 2066 58bb d916 91bd
00000290: ba06 043e 245d 7f3d ff4d bfbd 4227 593d
000002a0: 3796 b4bb 6199 493d 881c 9a3d e978 c53c
000002b0: 9e8f c8bc 0a9c 06bd d14d c6bd 5e3e 20bd
000002c0: 932c c33a 9aef 87bd 2f0b 523d 3c32 f63d
000002d0: de3f a13c 71bc 21bd 1a69 743d bdec a5bd
000002e0: b866 b53d 734a b0bd b3c4 833d 69da a9bd
000002f0: ad8a 3cbd 8ec8 943d ead0 1d3c b237 63bd
00000300: 704a 1abd a8ce 75bd c3ba 773d b211 193d
00000310: e5c8 91bc fcbf 8439 2a35 be3b 9a6e b4bc
00000320: 6e12 713d f12b ddbc d868 923d 23ab 643d
00000330: 3925 2fbd 1055 e5bd cb75 c5bd e93c 073d
00000340: faf2 0f3d ca0b 66bd 1082 6dbd e9a2 213d
00000350: 7f2a c33d 6ef3 9eb9 97e9 7fbb d6d4 ebbb
00000360: 9820 a33d dbff fc3d cb87 96bd 804b 713d
00000370: a3a6 4dbd 3669 52bd 605a 0a3d ac83 e23c
00000380: e0c7 afbd de33 153d 5129 4d3d 1647 b03d
00000390: c757 223d 8d4a b2bd a64f b6bc 945f 4bbd
000003a0: 6f2e b0bd 0b26 88bd 5c83 b4bd f492 2b3d
000003b0: e38e 4abd 45fc 233d 6abe b9bd 5185 b2bd
000003c0: 289a 163c 74f0 4e3d 9cb7 a1bd ab70 923d
000003d0: 06a3 fc3c 4b33 bf3b 3c3a 433d 70aa 84bd
000003e0: dbc2 f83a b730 5b3d 9857 323a 346e 113b
000003f0: 256d 0ab9 b6c5 783c 5b6f ccba 6000 b33c
0.08156737 0.03138602 -0.05812874 0.06689789 -0.052925654 -0.008419246 0.04499559 0.08517103
-0.02842359 -0.042688522 0.008915973 0.033659197 -0.016760962 -0.017673094 -0.09200106 -0.06553764
0.039974436 -0.100409985 0.00962663 0.04239514 0.081575304 0.03997539 -0.10765197 0.007270511
0.04389972 -0.09835253 0.0631461 -0.06536842 0.105626516 0.052601572 -0.020438075 0.0016441591
-0.022610517 -0.06358763 -0.008987131 0.0064082886 0.017586669 0.07262459 -0.08243587 0.11581901
-0.024989972 0.086686105 -0.066887304 0.013484656 0.051352352 0.016932359 0.056624435 0.01916836
-0.10380589 0.017077222 0.008185378 -0.0052242232 -0.07235968 -0.044570353 0.14962108 -0.0055364394
-0.06762513 0.064985454 0.03885642 -0.079605505 0.017065179 0.015784303 0.054850724 0.04602607
-0.026022809 0.0051111206 -0.074546255 0.024016034 0.12816964 0.040920362 -0.0341187 -0.07729145
0.037543125 0.045392316 0.017028572 -0.08556158 -0.0068816617 -0.045715585 0.12604946 -0.0693576
-0.03805303 0.032453984 0.009516561 -0.07466229 -0.044835825 0.04256209 0.042146154 0.038964655
-0.0799603 0.101411 -0.016474249 -0.018315295 0.04838611 0.02282842 -0.04998583 0.023203997
-0.10744653 -0.033156734 -0.048923373 0.00561475 -0.037453298 -0.08847409 0.044589747 -0.08854704
-0.009560723 0.07050657 -0.10236123 0.015129705 -0.08900469 -0.051820815 -0.09344563 -0.008827655
-0.04829482 0.11472259 0.08774403 0.05289169 -0.017483918 0.054466728 0.03741502 0.03217439
0.0972887 0.06602032 0.02557963 -0.13709375 -0.076124586 0.07072954 -0.0058843205 0.04369681
0.03434005 -0.008045619 0.026757108 0.030633114 -0.0015153151 -0.052515067 0.15661238 -0.13643412
-0.03170669 -0.042505477 0.083984345 -0.01499807 0.07322924 0.07271771 0.041827932 -0.063650355
-0.021272637 -0.014723761 0.015060378 0.0319614 -0.056197688 -0.057602268 -0.0944182 -0.025102858
0.012781008 -0.09379719 -0.027742358 -0.0760236 -0.10638168 0.041338656 0.023200292 0.072622634
0.07037684 0.06084154 -0.0033019856 -0.07084436 0.12893191 0.062344685 -0.093410484 0.053015955
-0.005511071 0.04921854 0.07524973 0.024105506 -0.024482545 -0.032863654 -0.09682811 -0.039121978
0.0014890603 -0.06637497 0.051280197 0.120213 0.019683775 -0.039486352 0.059670545 -0.08101795
0.08857483 -0.0860795 0.06434002 -0.082936116 -0.04603069 0.07264815 0.0096323285 -0.055473037
-0.037668645 -0.060011536 0.060480844 0.03737039 -0.01779599 0.00025320041 0.0058046775 -0.022025395
0.058855467 -0.026998492 0.071489036 0.05582727 -0.042760108 -0.11197865 -0.09641608 0.033017073
0.03514383 -0.056163587 -0.057985365 0.039462004 0.0952959 -0.00030317478 -0.0039049143 -0.007197003
0.07965201 0.12353488 -0.07350119 0.058909893 -0.050207745 -0.05136987 0.033777595 0.027650677
-0.08583045 0.036426418 0.05008823 0.086073086 0.039634492 -0.08705626 -0.022254776 -0.049651697
-0.086026065 -0.06647881 -0.08814117 0.041888192 -0.049452674 0.040035505 -0.09069522 -0.08716834
0.009192027 0.050522283 -0.07896349 0.07150396 0.030839454 0.005834972 0.04766296 -0.06477821
0.001897897 0.053513255 0.00068032136 0.002219093 -0.00013201365 0.015183857 -0.0015597151 0.021850765

gru.weight_hh_l1 f4 [384, 128]
00000000: 27e8 b2bd 7bee e13d fcfd c13d db9e 0d3d
00000010: 2e84 b93c dfc2 803d 3b68 f43c f6f3 06bd
00000020: 16e2 9e3d a7c9 e53c b59c 8dbc 1f02 54bd
00000030: e705 29bd fe12 88bd ab3f 0ebe 45fd 66bd
00000040: 8578 68bd 58e7 2d3d 30e1 9c3c c525 60bc
00000050: beac a23d f212 ef3c 38d3 36bd aa39 d7bd
00000060: c332 5cbd efbf 08bc 47cf a3b9 bd93 8dbd
00000070: 2c37 71bd 38f3 6d3d 3c84 613d bc49 403d
00000080: a44b 0f3d e65e d5bd b498 16bd d351 94bd
00000090: 8638 d2b9 3c20 94bd 45ae d7bc 59df ff3c
000000a0: 3beb 5fbc 4d3f 5ebb c43b 88bd f553 a2bd
000000b0: 55eb 5e3c 96f8 febd 21c8 25bd b1b3 20bd
000000c0: cd64 81bd b49b e33c 5958 363c 37cd 863d
000000d0: 3f8f 8ebd aa73 95bd 69ba 833d e1f6 6abc
000000e0: 6329 6e3d 4503 953c 3ff6 d6bc 6f46 85bc
000000f0: 5139 0dbd 6b6c 61bd e5fa b83d e5cb e5bd
00000100: 2357 0b3c f868 cdbb 21d7 84bd c13b fdbc
00000110: 6b11 55bd 8e00 83bd 9d96 ea3b 271a 063c
00000120: ab9d 75bd c427 acbd fc5a 893d f46f 463d
00000130: 93b5 cebd 5577 57bd a5e6 f2bc b653 49bd
00000140: d8fc a93d 1bdb 13bc e8c9 863d 0821 87bd
00000150: a906 4fbd 96c3 4b3d c116 50bd be54 f6bb
00000160: 6e71 98bb dc21 d8bc 9664 173d 3383 0bbd
00000170: c44f 7c3d cf02 9ebd b33a 71bd ecd8 0f3d
00000180: f855 8ebc 8a95 ab3d dd8e efbc e7bd 953d
00000190: 6dd8 9d3d df3a babc d2d4 ddbd 1d39 00bd
000001a0: f10a 83bd b801 a8bd edc0 a8bd c4e1 52bd
000001b0: b2ba 7a3d 7fcc 7ebc e3f0 8bbd 9fa2 553d
000001c0: b654 dd3d e51e 12bd 8f3a 83bc 76f5 383d
000001d0: 2324 a13d ffb6 8f3d 8939 a73c 705b f6bc
000001e0: def3 503d 8242 203d f612 09bd 9835 6fbd
000001f0: 3b66 6fbd ef80 8dbd c392 79bd 42e6 adbc
00000200: df67 b1bc 72a8 7f3d 2fd8 623d a6be 803d
00000210: 5ada 6bbd 7f4d aa3c 4687 5a3d 85e3 85bd
00000220: 619b 953d 7a9f ed3c d80c 0abe 489e 873d
00000230: ee55 0cbb a69d 163e 4ad9 86bc 1fba 5dbd
00000240: be73 3f3d e984 0abd 044f 173e a986 18bd
00000250: c66f e23d 11ad 8a3d a0e8 aa3d f0ed da3c
00000260: c9c3 293d 11e9 863c a5c6 053e 719b b93d
00000270: 83c8 043c 0b62 383d 2fc1 b4bd 582a 503d
00000280: 1893 b0bd 3f06 dabd 0175 363d e65a a9bb
00000290: bbe4 64bc 4c46 193d 9ab4 a33d 9355 743d
000002a0: 03e9 adbd 434c 71bd 9097 a73d 9f84 8a3d
000002b0: d11a c83d cfc8 943a ce6f c9bd f659 61bd
000002c0: 202b d3bc d963 52bc 42cb 903d 7b3d d6bc
000002d0: 3dec 0039 a9b7 acbd bce1 e5ba 2b46 6cbd
000002e0: ad6d 9fbc 41d9 d33d df33 c23d 54c8 333d
000002f0: 0c0d 6abd 6a22 edbb 71e0 ff3c 6719 1ebd
00000300: ca08 09bc c485 d03d b6c3 f2bc f623 81bd
00000310: 0321 c3bd 7a71 9e3d 23e7 343c 0991 813d
00000320: 3f0c 02bd 02a4 533d dc38 373d 3ade 963b
00000330: f6f1 c2bd 470c 6f3d 1098 573d a41a 26bc
00000340: 4131 333d 054e 783c 95e6 2dbc b01e 4fbd
00000350: a535 8fbb 2d2c 883d 232d 0cbd cdbc 5bbd
00000360: c13f a9bd a024 a9bd 9d67 4fbd 5bf9 953c
00000370: 6880 133e 442a e83d 809e fd3b d9ed f93d
00000380: 3182 a43c aa38 6d3d 78b9 4ebd 7abb 163c
00000390: dc3c ac3d 9375 cbbb d65f 273d 3900 723d
000003a0: 3886 233d 08ef 943c ab40 823d cbde 12bc
000003b0: dec6 a7bb e0e0 7ebd 6e1d 76bb b570 f73c
000003c0: 2aac 883c 876c b3bc 3bcb f93d a260 9d3d
000003d0: 4fc8 fbbc a2a6 c1bc 52e3 033b 3407 573d
000003e0: 9251 f2bc b9a5 5f3d 02f1 713d 1e29 fd3c
000003f0: fc73 c0bd c776 253d 2c8a efbd c54c 25bd
-0.08735686 0.11031815 0.09472272 0.034575325 0.022646036 0.06287169 0.029834857 -0.032947503
0.07757966 0.028050257 -0.017286638 -0.051759835 -0.041265395 -0.066442475 -0.13891475 -0.05639388
-0.05675556 0.042456955 0.019150347 -0.01368088 0.07943104 0.029183839 -0.044635028 -0.105090454
-0.053759348 -0.008346542 -0.00031244216 -0.069129445 -0.058890507 0.05809328 0.05505775 0.04694532
0.034984246 -0.10418491 -0.036766723 -0.07242169 -0.00040096435 -0.07232711 -0.026328215 0.03123443
-0.013666923 -0.0033912242 -0.066520244 -0.0792617 0.013605912 -0.12449758 -0.04047406 -0.039233867
-0.06318054 0.027784206 0.011129462 0.065821104 -0.06960916 -0.07297452 0.06432039 -0.014341087
0.05814494 0.018190036 -0.026240466 -0.016268937 -0.03447849 -0.055035036 0.09032229 -0.112205304
0.008504662 -0.0062686168 -0.06486345 -0.030912282 -0.052018564 -0.0639659 0.007159068 0.008184946
-0.059964817 -0.08406022 0.06706807 0.04844661 -0.10093226 -0.05260404 -0.029650996 -0.0491521
0.08300179 -0.009024407 0.06581479 -0.06598097 -0.05054346 0.049747072 -0.05080295 -0.0075174263
-0.0046521937 -0.026383333 0.03696116 -0.03406067 0.061599508 -0.077153794 -0.05889387 0.035118982
-0.017374977 0.08378132 -0.029242927 0.073116116 0.077072956 -0.02273315 -0.10831608 -0.031304467
-0.06398571 -0.08203453 -0.08239923 -0.051484838 0.061213203 -0.015551685 -0.06833055 0.05215704
0.10807173 -0.035673995 -0.016019134 0.045155965 0.07868221 0.070173256 0.020413177 -0.030072898
0.05101382 0.039125927 -0.03346535 -0.05840072 -0.058447104 -0.06909358 -0.06093098 -0.02122796
-0.021655975 0.0624165 0.05538195 0.06286363 -0.057581283 0.020788906 0.053351663 -0.065375365
0.07305027 0.029006708 -0.13481462 0.06621987 -0.0021413523 0.14708576 -0.016461033 -0.054132577
0.04674124 -0.03381816 0.14776236 -0.037237797 0.11056475 0.06771291 0.08345151 0.026724786
0.04144648 0.016468557 0.13064058 0.09062851 0.008104446 0.045015376 -0.08825909 0.050821632
-0.08621806 -0.106457226 0.044545177 -0.0051683066 -0.013970549 0.037420556 0.079934314 0.059651922
-0.08491709 -0.05891062 0.08183205 0.06763577 0.0977074 0.001135135 -0.09835778 -0.055017434
-0.0257774 -0.012841188 0.07070018 -0.026152363 0.00012295037 -0.08433468 -0.0017538588 -0.057684105
-0.019461477 0.10344172 0.0948255 0.04389222 -0.05714135 -0.0072367685 0.031234952 -0.038598444
-0.008363912 0.10181764 -0.029634338 -0.06305687 -0.09527781 0.07736488 0.011041435 0.063264914
-0.03174996 0.051670082 0.04473196 0.004604128 -0.09518807 0.058361318 0.052635252 -0.010138188
0.043748144 0.01515532 -0.010614057 -0.050566375 -0.0043704086 0.06649051 -0.034222733 -0.05364685
-0.08264113 -0.08258939 -0.050635923 0.018307379 0.14404452 0.113361865 0.007739842 0.12203569
0.020081611 0.057915367 -0.050469846 0.009199971 0.084100455 -0.0062090843 0.04086288 0.059082244
0.039922923 0.018180385 0.06359991 -0.008964251 -0.0051201424 -0.062226176 -0.0037554163 0.03020511
0.016683657 -0.021902336 0.12196966 0.07684447 -0.030735163 -0.023639027 0.0020124507 0.052497104
-0.029579911 0.054601405 0.059067734 0.030903395 -0.09397122 0.040396478 -0.11696276 -0.040356416

gru.bias_ih_l1 f4 [384]
00000000: a406 8f3c 92c1 693c 0842 923d a731 843d
00000010: 1a06 07bd da1c 61bc 995d e23d e1b7 803d
00000020: c6a6 a73c f512 9e3d 7274 bebc 77aa ab3d
00000030: a7b6 173c 9f70 023e ca28 a0bc 951f e63d
00000040: dddc 9dbd 340c 21bc 8751 a63c c6ec 7c3c
00000050: b853 bd3d 41f6 b83d 0897 fa3c 1d16 2fbd
00000060: e665 a13d 21c9 973c 647a 9dbc fa1d 783c
00000070: f952 5ebd 0507 4e3d 7d93 08bd e55a 703b
00000080: d84f d43d 32f6 943c a98c bd3d 0612 a23c
00000090: 4e71 f63c 3f9c f83c c550 1239 7b38 87bd
000000a0: acf7 85bd 00b9 f03d 5ff1 ac3c 5330 7b3d
000000b0: 449d ef3c 8f17 f73d 2bfc 90bd 60df 8f3d
000000c0: 7d86 ab3d 2c80 45bb 78d2 ab3d 8588 d93b
000000d0: 7a57 033b 569c 46bd 7066 503d 50cc 15bd
000000e0: e633 8bbd 41b3 773d c8d3 82bc 3822 acbc
000000f0: a7c7 84bd f556 9e3d f57d 3bbd ea1d 983d
00000100: 5c32 8cbc 9490 02bd 8bd8 16bc 53a2 37bc
00000110: 5991 b53d 8b07 bbbc 97eb bb3d 0cda 84bd
00000120: 4fbb 443d 5b95 a63d 4ca9 eebc b36d 43bc
00000130: 4d91 443d 908e 52bd d5d1 023c 98c2 8c3d
00000140: ade1 033e b083 b03d 36f7 fb3d 1390 57bd
00000150: f57a 683d 8f36 693c 6d8f dabc d86e 93bc
00000160: 7b9d 2b3d 5767 503d c46b 88bd 5cf6 dfbc
00000170: ec66 f6bc ef95 a53d fd6a 0bbd 816b c73d
00000180: 2eca 19bd 5f43 54bd 7909 ddbb 5cf1 9d3c
00000190: f896 543c bad0 d13d 0f22 26bc 9b44 5d3d
000001a0: 6da5 6dbc 919e 10bd 5a60 ca3c 7fe1 cf3d
000001b0: 86e9 f23d b422 d4bc 1308 93bc c98f d13d
000001c0: 33aa 97bc e337 97bd 50fc 63bc 176a cd3d
000001d0: 8df8 3f3d c834 303d 1e6d 92bc 80c6 613d
000001e0: 7dd8 363d 817c a23d 1dd4 1e3d 390c 0fbd
000001f0: c2c9 9a3d a12d 29bd b331 3b3d 9784 81bd
00000200: d455 cebd eb57 36bd 00b1 86bd 38f8 65bd
00000210: f84f 8abd cac2 563c e2eb 72bd abf9 96bc
00000220: dbdb f3bc 3544 e7bc adf5 7f3d 95a6 20bd
00000230: 3852 253d 4a91 9bbd 62f7 96bd 58c0 153d
00000240: 9c2b 253d 1482 8fbd 8a3d 83bd 3b76 2f3d
00000250: 8f44 f03c c15d 18bd 347d 193d fd24 953b
00000260: 237a 733b 1df4 79bd a090 21bd f1c6 10bd
00000270: 6895 893d 3e39 7dbc f199 623b 5a04 e13d
00000280: 1af7 0cbc b5b9 2bbd 909d 963c 2066 f23c
00000290: 80bf d73c d3e5 8ebd ead3 9b3b 3060 9d3c
000002a0: 2cba 9a3d d1d0 aa3c c85f a3bc a692 72bd
000002b0: 8df8 dbbc 4df4 113d 1084 893d a1bf 5e3d
000002c0: 7744 59bd 3b00 0b3d d739 c13c 29dc 2a3c
000002d0: 29b4 a5bd b367 35bd b2bb bcbd a742 a3bd
000002e0: 098a 393d dbdb bfbc f969 61bd 68f1 473c
000002f0: b531 0f3c eb0f 113d f6ac 3fbc ee19 6c3d
00000300: b830 a23c 2b4a d63c a444 973c 82bf 853d
00000310: 647c 953d 3fda 8d3d db69 063d e1cd e0bd
00000320: 0a86 73bd 7df6 d33a 648e 06bb 38b2 faba
00000330: f351 63bd f853 933d 862e ae3d 7e6e c23c
00000340: f253 dfbd 6e82 fc3c e559 d2ba 70b2 c43d
00000350: d5a4 9b3d 7b73 6d3c ac8d 82ba d548 333d
00000360: 9bab 78bd 97b6 ddbc aa12 8f3c c8dd b63c
00000370: 7506 44bd d673 a0bc ca3d e7bc c39f 55bd
00000380: 71ad e03c 247a 71bd 458c bfbd 84a9 003c
00000390: 8762 58bc 0aef 96bd cdfb 893d 08f4 53bd
000003a0: fed2 c53d 4ac8 083d 02d5 76bd 0b98 513d
000003b0: 2c5b cdbd cb93 e4bc 9ede 71bd c993 283d
000003c0: 79f2 b0bd a4a3 82bd 6612 a13c 1528 9dbc
000003d0: 7e6e 97bd 6c97 04bd 019d 50bd 821c 0d3d
000003e0: 8ea7 643d b1fb 073c f795 a4bc 2737 363d
000003f0: fd99 1a3d cc8e 0eba 2374 0ebd 5e22 8cbc
0.017459221 0.014267342 0.07141501 0.06454783 -0.032964803 -0.013739789 0.110530086 0.06285072
0.020465266 0.077184595 -0.023248885 0.08382123 0.009259856 0.12738274 -0.0195507 0.112364925
-0.07708142 -0.00982957 0.020302547 0.015437311 0.09244484 0.09031344 0.030589595 -0.0427457
0.07880764 0.018528523 -0.0192234 0.015143866 -0.054278348 0.050299663 -0.03334378 0.003667527
0.103667915 0.018183801 0.092553444 0.019783985 0.030083325 0.030347941 0.00013953734 -0.0660257
-0.0654138 0.11754036 0.021111188 0.061325382 0.029249795 0.1206504 -0.07079347 0.07025027
0.08375261 -0.003013621 0.08389753 0.006638589 0.0020041154 -0.048488937 0.050878942 -0.0365718
-0.06797008 0.060473684 -0.015970126 -0.02101241 -0.06483393 0.077314295 -0.04577442 0.07427581
-0.017113857 -0.03187616 -0.009206901 -0.011208135 0.088656135 -0.022830745 0.091757946 -0.06486902
0.048030194 0.08133956 -0.029133461 -0.01192801 0.047990132 -0.05140549 0.007984598 0.06873053
0.12879057 0.086188674 0.12303011 -0.052627634 0.056757886 0.014234199 -0.026679719 -0.01799719
0.041898232 0.050879803 -0.0666118 -0.027339153 -0.030078374 0.08085238 -0.03403758 0.097373016
-0.03754633 -0.051822063 -0.006745514 0.019280128 0.012975447 0.102448896 -0.010139956 0.054020505
-0.014504773 -0.03530747 0.024704147 0.10150432 0.11860947 -0.025895454 -0.017948186 0.10232503
-0.018513774 -0.073837064 -0.013915136 0.10030001 0.046867896 0.043019086 -0.017874297 0.055120945
0.044640053 0.079339035 0.038776506 -0.034923766 0.075580135 -0.04130328 0.045701694 -0.06324118
-0.10074964 -0.04451744 -0.06576729 -0.056144923 -0.06753534 0.013107965 -0.059306987 -0.018429598
-0.029767921 -0.028230766 0.062490154 -0.039221365 0.040361613 -0.07596071 -0.07371403 0.036560386
0.040324792 -0.07007232 -0.06408222 0.042837363 0.029329566 -0.037198786 0.03747292 0.0045515285
0.0037151657 -0.06102382 -0.039444566 -0.035345975 0.0671795 -0.015455542 0.003457662 0.10987158
-0.0086038355 -0.04192515 0.018385679 0.029589713 0.026336432 -0.06977429 0.0047554867 0.019210905
0.07555041 0.020851525 -0.019943133 -0.059221886 -0.026851917 0.035633374 0.06714642 0.05438197
-0.05304381 0.033935767 0.02358715 0.010428467 -0.080910034 -0.04428835 -0.092154875 -0.07971697
0.045297656 -0.023420265 -0.055032704 0.012203552 0.008739878 0.03541557 -0.011698952 0.057641916
0.019798622 0.026158413 0.018465348 0.06530668 0.07299116 0.06926393 0.032815795 -0.10976768
-0.059454 0.0016171482 -0.0020531649 -0.00191266 -0.055498075 0.0719375 0.085049674 0.023734327
-0.10904683 0.030823912 -0.0016048519 0.09604347 0.075997986 0.014492865 -0.0009960434 0.04377063
-0.06071053 -0.027064605 0.017464954 0.02232255 -0.04785772 -0.019586485 -0.028227706 -0.052154314
0.027426453 -0.058954373 -0.09352926 0.007852916 -0.0132070845 -0.07369812 0.0673748 -0.0517464
0.09659384 0.033394136 -0.060261734 0.05117039 -0.10027155 -0.027902504 -0.059050195 0.041156564
-0.08639998 -0.06378868 0.019662093 -0.019184152 -0.073941216 -0.03237097 -0.05093098 0.034451015
0.055823855 0.008299754 -0.02009104 0.04448619 0.03774451 -0.00054381485 -0.034778725 -0.017106231
